Model77.pkl (torch, 171415 bytes, 6 tensors)

linear_1.weight f4 [50, 784]
00000000: d8a9 d9be 6e74 d9be 44c5 c3be 7126 afbe
00000010: ec21 9abe 8c4a 70be 546b 58be 7c9a 51be
00000020: d8f0 03be 9d2d fcbd 7945 77bd 0c2e c7bd
00000030: d670 50bd 91ca 87bb 69de b13c 5988 893d
00000040: fdb6 9e3d e69b a63d 0954 ce3d f31d eb3d
00000050: 43bc db3d c2f7 023e 3c79 5a3e 03c9 4a3e
00000060: 538e 5c3e b912 6b3e b3a3 953e ebd2 9f3e
00000070: 7557 e0be 4120 d1be 750a c7be 4a43 8fbe
00000080: 19b4 95be 688f 7cbe 4a96 69be 1023 1dbe
00000090: 14eb 15be bf0a d3bd 15cd fbbd f19f 82bd
000000a0: 90a2 7dbb 5c3b 35bc 7d7d 203d 7a3c a13b
000000b0: f185 ca3d 4bf7 da3d 380a d83d cd11 c23d
000000c0: e775 093e eb4b 1c3e a3c1 423e 91b4 3e3e
000000d0: aa20 763e 0fc6 8c3e cc69 8c3e 130f 9d3e
000000e0: a4e2 e4be d433 c9be 04fd b8be e194 92be
000000f0: ca4c 6fbe 1ee9 74be 7988 56be 53a7 3bbe
00000100: 6abd bebd 99bf cdbd 6431 ffbc 8f0e bcbc
00000110: abd2 af3c 6b98 90bc c3a1 76bc 8eec 413c
00000120: bd01 0a3c b8bc 9c3d 486a 493d 5369 c13d
00000130: 9c3e 053e f502 253e f647 413e 7a02 393e
00000140: b3da 833e 51fd 713e a621 793e d3b4 a03e
00000150: 24a3 ccbe 205e d5be a339 c4be 52e6 a7be
00000160: d43e 62be 8f63 29be 555a fabd 3f42 c5bd
00000170: 5be6 65bd b704 84bd 8fac 63bd b708 b7bd
00000180: 0897 01bc 4df5 043d 6693 433d 365c cb3c
00000190: 49b6 1d3d 9436 a43d 3c5e 543d 128d 613d
000001a0: 397e 113e 295e 0d3e 4aff 413e 5d5d 2b3e
000001b0: 3daf 533e a087 6f3e 49fa 9b3e 32fe a13e
000001c0: 3458 cebe 1cff cdbe 8798 bfbe 8cc3 8bbe
000001d0: 117d 60be 5430 1ebe 8007 02be 0948 adbd
000001e0: 9f55 d3bb 59cf 6abd 94e2 89bd 44c2 a8bd
000001f0: b4ab 023d 735c 183d bdd9 b33d 758b 9f3d
00000200: 42e1 133d 963a 5e3d 716d ba3d 9fc1 993d
00000210: eb89 043e a7b9 0f3e e334 5d3e 6f0b 393e
00000220: 521a 883e df41 863e 28bb 7d3e e852 9c3e
00000230: ce84 cbbe 747e b2be 84ad 95be 6d5c 69be
00000240: 27f5 53be cc0d 0dbe 6869 b4bd b92e 84bd
00000250: c503 02be 98dd 21be 9471 a2bd a78c abbd
00000260: 431e 0c3d e6fb 983d 91c8 cb3d 7f29 cb3d
00000270: d485 803d 7ca3 483d 0738 2b3d cf1d be3d
00000280: 33c2 fc3d 4805 123e 88ef 1a3e fbb1 583e
00000290: dfdb 833e e18d 923e c19b 9f3e 3b3b a73e
000002a0: 29b3 d0be 47d6 b5be fe03 a8be 15d4 7bbe
000002b0: 49b1 0abe 563f b8bd 2d89 e9bd 5213 5bbd
000002c0: bb8c 0ebd 67cf abbd 7cfa 88bc a5e0 83bd
000002d0: 6ab3 8b3d 1a5e 0a3e 5351 003e da1c ba3c
000002e0: a7b9 2f3d e19e 923d 29e2 103d 833e 813c
000002f0: 912d 173d a238 a73d 43ea 313e 32eb 573e
00000300: 0b29 423e 0c47 863e 8cb5 853e dfc2 993e
00000310: 5279 c9be 69d8 c1be b3e4 96be 972c 60be
00000320: d222 0dbe 3ac1 7bbd 47d0 61bd 39f7 a8bd
00000330: a2ed 3dbd e412 80bd b589 87bd 1644 bdbd
00000340: d915 563d aca1 e33d 16fa a33d 1f98 c63d
00000350: 8531 b43d d55b b33d 5806 57bb 7b6b cabd
00000360: 25da e5bb 555a 973c 2f8e 9d3d 76a9 363e
00000370: fa8e 4b3e 990a 6b3e 84eb 9a3e 7db6 8d3e
00000380: ee73 c4be 0088 aebe 8d8c 86be 0830 0fbe
00000390: 8c22 fdbd cbfd 64bd dd96 0e3d 75f6 c6bc
000003a0: 4a33 62bd cee7 f4bd cd22 23be 9ed8 9fbd
000003b0: d058 9fbc e6c9 003e 514a d33d edec 403d
000003c0: fe0b 843d 353b 933d 339b c53c 31ad 9bbd
000003d0: 8033 ddbd 4c6c ecbc 2690 5b3d c70e b83d
000003e0: 7b2d 333e 31d4 713e ccac 803e 39f1 9f3e
000003f0: c9fe d6be 09cb a3be a83d 65be 1a52 36be
-0.42512393 -0.4247164 -0.3823644 -0.34209016 -0.30104005 -0.23465937 -0.21134692 -0.20469087
-0.12884843 -0.123133875 -0.06036899 -0.097255796 -0.05088886 -0.004144021 0.021712499 0.067154594
0.07749746 0.08135204 0.10074622 0.11480322 0.107292674 0.12789825 0.2133531 0.19803242
0.21538667 0.22956361 0.29226455 0.31215605 -0.43816724 -0.4084492 -0.38875166 -0.27981025
-0.29238966 -0.2466408 -0.22811237 -0.15345407 -0.14640456 -0.10304784 -0.12294976 -0.06378163
-0.003870163 -0.011061516 0.039182175 0.0049205394 0.098888285 0.10691699 0.10548824 0.094760515
0.13423882 0.15263335 0.19019179 0.18623568 0.24035898 0.27494857 0.27424467 0.30675563
-0.44704163 -0.39297354 -0.36130536 -0.2862921 -0.23369136 -0.23917052 -0.20950498 -0.18325548
-0.093134716 -0.1004631 -0.031151481 -0.02295616 0.021462759 -0.017650804 -0.015053215 0.011836184
0.008423266 0.07653183 0.049173623 0.09443917 0.13012165 0.1611441 0.18875107 0.18067351
0.25752792 0.23631789 0.24329242 0.31387958 -0.39968216 -0.41673374 -0.38325223 -0.32792908
-0.2209428 -0.16541885 -0.12224261 -0.09631776 -0.056127887 -0.06446212 -0.055584487 -0.08937209
-0.007909544 0.0324605 0.047747992 0.024824243 0.03850392 0.080182225 0.05184768 0.055066176
0.14208306 0.1380545 0.18945041 0.16734834 0.20672317 0.2339158 0.3046439 0.31639248
-0.4030167 -0.40233696 -0.37421057 -0.27297628 -0.21922709 -0.15448123 -0.12698174 -0.08461005
-0.006449416 -0.05732665 -0.067326695 -0.08240178 0.03190203 0.03719754 0.08781765 0.07790271
0.036103494 0.05425509 0.091029055 0.075076334 0.12943237 0.14035664 0.21602206 0.18070768
0.2658258 0.2622213 0.24778426 0.30532002 -0.3974976 -0.348621 -0.29233944 -0.22789164
-0.20698987 -0.13774794 -0.08809167 -0.06454224 -0.1269675 -0.15807188 -0.079318196 -0.08376437
0.034208547 0.07469921 0.099503644 0.09920024 0.06275526 0.048984036 0.04180148 0.09283029
0.12341728 0.14259827 0.15130436 0.21161644 0.25753686 0.2862387 0.31173518 0.32662377
-0.40761688 -0.35515043 -0.32815546 -0.24592622 -0.13544191 -0.08996455 -0.11403117 -0.053485222
-0.03480218 -0.08389168 -0.016721003 -0.06439332 0.0682133 0.1351246 0.12531023 0.022718836
0.04290166 0.0715921 0.035371933 0.015776878 0.03690869 0.08165099 0.1737452 0.21085814
0.18960969 0.2622608 0.26115072 0.30031487 -0.39350373 -0.3786042 -0.2947136 -0.2189201
-0.13782814 -0.061463572 -0.05513027 -0.08250279 -0.046369202 -0.06253603 -0.066180624 -0.09241502
0.05226693 0.11114821 0.080066845 0.096969835 0.087985076 0.0875775 -0.0032810178 -0.098837815
-0.0070145302 0.01847569 0.07693135 0.17838082 0.1987876 0.22953261 0.3025781 0.2767829
-0.38369697 -0.34088135 -0.26279107 -0.13983166 -0.12360105 -0.0559061 0.034811843 -0.024287442
-0.055224694 -0.11958276 -0.15931244 -0.07804988 -0.019451529 0.12577018 0.10316909 0.04710095
0.064476 0.07189027 0.024121856 -0.07601393 -0.108008385 -0.028860234 0.053604268 0.089871936
0.17497818 0.23616101 0.25131834 0.31238726 -0.4199126 -0.3199084 -0.22386801 -0.17804757

linear_1.bias f4 [50]
00000000: 8552 90bf 2a2c 0ac0 b873 063d c0b9 5bbf
00000010: 5703 be3e d53e bdbc d946 63bf 8447 d0bf
00000020: a11a 42bf 13ab 40bd a7a2 123c 7682 b9bf
00000030: fed9 da3c e470 a8bc 792f 59be 54da 79bc
00000040: 5420 40be 3016 1a3c 3520 c63c 11ac abbc
00000050: 2a74 0d3d f01f 0c3d a46d ae3d 4835 c23d
00000060: 3a53 d2bc 061f c6ba 0134 45ba da54 80bc
00000070: e9b1 26bc 0a91 95bf 1ff7 dd3b 90b6 14bf
00000080: 0c2a 223e 9dd5 083c 8180 f13c 5be3 ac3c
00000090: ad6a 303d dc86 d33c 5fb9 203c b9f9 cc3c
000000a0: 5b3d 09be 78c1 cf3e 5ec2 5bbe 8266 a2bb
000000b0: a939 fcbe 132a 74bd 7c80 e2bc 38fa f33c
000000c0: a094 243c 0b5b b7bc
-1.1275183 -2.1589456 0.0328252 -0.85830307 0.37111923 -0.02310125 -0.8877998 -1.6271825
-0.7582188 -0.04703815 0.008949912 -1.4492939 0.026715275 -0.020561643 -0.21209516 -0.015249807
-0.18762332 0.009404704 0.02418528 -0.020956071 0.03453461 0.034210145 0.08517006 0.09482819
-0.025674451 -0.0015115447 -0.0007522703 -0.01566546 -0.010174253 -1.1684887 0.006773844 -0.5809107
0.15836352 0.008351711 0.02948022 0.021104505 0.043070484 0.025821142 0.009809821 0.02502142
-0.13402312 0.40577292 -0.21460864 -0.0049560675 -0.4926274 -0.059610438 -0.027649157 0.0297824
0.010045201 -0.02238228

linear_2.weight f4 [50, 50]
00000000: de1f fabd db98 0dbe ecf3 3e3c 33b3 9d3c
00000010: 35a0 a4bb 7cd2 0b3e b943 d6bc e18c 08be
00000020: dc4c 00be b776 bebd b38f 513c 2778 79bd
00000030: e313 d93d d1da 83bb 6dd5 e6bc 6e8f e03c
00000040: 3bd1 dfbc 9bb3 4f3c 0227 813d 5151 213d
00000050: b06f b33d 1ea9 d53d 3db8 e0bd 2fe7 bc3d
00000060: 99b4 1d3d 7a89 fabd 2c04 083e 66e3 073e
00000070: 63e6 013c 402e a73d f8ee c23d 8ffc 05be
00000080: 7234 703c 75bb 10be 18ec 0b3e 4ac1 773d
00000090: 203f 65bd bf86 99bd 8d81 403d 5f04 69bd
000000a0: 581f c43c cbf7 96bc e539 0fbe 346f 433d
000000b0: 3f10 823c cf58 ccbc cd53 f9bd 52e0 7a3c
000000c0: cbef 06be 0be9 793d 81c6 ffbd 0180 f7bd
000000d0: 3697 273d 3e56 dbbc 5195 3ebe 68cc c43d
000000e0: 3e98 e73d bf1d 56bd 9785 85bd 2b77 58be
000000f0: 3256 06be da0e 703d e4b5 66bd 991d ee3d
00000100: 7335 923d cc0b 66bd 430a 483e 8cb6 933d
00000110: 374e 093e 0c4a 9dbd f008 c0bb 0fd0 103e
00000120: c13e a3bd a05c 183e 4588 43bd 417f f2ba
00000130: f54b d1bd 72ea 36bd 449e 673c 7d97 913e
00000140: 9b7d 983b 8e5b b23d 8f87 03be 93e2 ba3c
00000150: 4863 94bd 55c5 ba3c 1af9 8abe b0cc a53d
00000160: ebc4 f73c aac0 ad3d 7247 203e c379 cabe
00000170: 3546 9cbd c1c3 3a3d 6827 8e3e 3232 063e
00000180: 496d 97bd 6979 d4bd 6169 b33c 2ff6 8e3d
00000190: 8771 8cbe 110e 0cbf 14b3 be3d bfad 4fbc
000001a0: 844c 223e ff31 e03d 3b07 a73e d986 363e
000001b0: a9f6 dcbe 609c f2bd f73c f8bb d783 953d
000001c0: d323 c43d c6e5 b63d c52c f03e 6e71 15bd
000001d0: 7bfe da3c 0b57 c73d f12a 933d 7577 6dbd
000001e0: c3e7 f9bd 55a4 0cbe 8d0c 57bc 7462 3f3e
000001f0: 7642 b7bd 753e a33d 21ad e0bd 4e99 18bb
00000200: b9e5 2fbd 0865 11bc 5b76 c33d 5d3a 1fbe
00000210: 72d9 bc3e 4616 fbba bdcb dabd da10 c93d
00000220: da17 ecbe 3f45 023e 4645 1d3c db8e 623e
00000230: 1c39 823e 2c60 1cbf 56d0 4dbd 559d e13d
00000240: cd45 2b3f 41fe ab3d 624a 74bd e327 02be
00000250: 3e9d bbbb 2e6a e03d 01cf c3bd a843 453e
00000260: c18f 393d 24d1 e1bb 6504 a63d 987f 7f3c
00000270: b9b7 60be f1ff aa3c 3d06 ee3d 45b0 13bd
00000280: 9ae1 a43d cf42 923e 9413 003e 685c ce3d
00000290: 358d 18be f9e3 ebbc b30c b13c 9933 cfbd
000002a0: 5943 7f3d f64d eb3d 0157 433d 6472 83bc
000002b0: d3bd 5c3d ba5a fbbc dd9b 253b 2c7d 0d3e
000002c0: b2b2 ae3d d1cf 603d ce96 25bc 6f21 a53d
000002d0: fc6c 823d d9cf 2ebe e88e 86be b6e2 743d
000002e0: 6d01 6c3d 7f6f 04be 5e5f 293d 01c8 25bd
000002f0: 0eb0 113c 8ff7 233d ce15 73bc 9b72 ffbc
00000300: 4af6 093d e5ec 13bd 943a 4cbe 2b52 42be
00000310: d73c 8c3c c3c8 99bb ef8d da3c 5013 83bc
00000320: 8f1c 96bd 5e4a 99be 6a94 b83d 2fbb 8f3e
00000330: 685c dbbc c0ff 993c 52bd 15be 1fb7 28be
00000340: 6544 203e 1b63 5e3e e934 c7bd 052d df3c
00000350: fc38 e2bd f078 8fbd 5855 6a3e 0b7d cc3d
00000360: d30d 0f3e ffd2 ed3b 2b3b 0bbd 3024 8b3d
00000370: 797e 8a3d 701f 8f3c f541 d13c 2717 603e
00000380: 0192 0fbe 5918 04be 5dd6 be3c b36c c3bd
00000390: 5ce6 f8bd 9f4f 073d 437c f6bc 3a23 8a3e
000003a0: e02d 353e fa1c cd3d a73c 153d 55c1 c53c
000003b0: 2a5e 123e 408f f1bd f0f5 923d b4b2 e6bd
000003c0: 7dba 533e b968 e13e cbad 6d3c 5355 103e
000003d0: 7122 8abe d256 55be 3ec4 d63b 54e1 293d
000003e0: 86be 41bc 499b 09be de78 a13d 40f4 adbd
000003f0: 3219 f3bd ee77 4cbd f5aa f0bd b862 aebd
-0.122131094 -0.13827841 0.011654835 0.019250488 -0.005023981 0.13654512 -0.02615534 -0.13334991
-0.1252932 -0.09299987 0.012790608 -0.0609056 0.10599496 -0.0040238877 -0.028177941 0.027412143
-0.027321449 0.012677099 0.06306268 0.03938419 0.08761537 0.10432647 -0.10972641 0.09223782
0.03850231 -0.12233253 0.13282841 0.1327034 0.007928464 0.08163118 0.09518236 -0.13084625
0.014660941 -0.14134009 0.13664281 0.06048707 -0.055968404 -0.07496404 0.04699855 -0.056888934
0.023940727 -0.018428704 -0.13986929 0.047713473 0.015876887 -0.024944691 -0.12174187 0.015312271
-0.13177411 0.061013263 -0.124890335 -0.12084962 0.04091569 -0.026774522 -0.18611647 0.096093
0.11308335 -0.05227446 -0.06519621 -0.21139209 -0.13118818 0.058607914 -0.05632581 0.11626739
0.07139101 -0.056163594 0.19535165 0.072125524 0.13408743 -0.07680139 -0.0058604404 0.14141868
-0.07970954 0.14879084 -0.04773738 -0.0018501059 -0.10219566 -0.04465718 0.014136855 0.2843589
0.004653645 0.08708869 -0.1284468 0.022813117 -0.07245499 0.022799173 -0.27143174 0.08095682
0.030245265 0.084840134 0.15652254 -0.39546022 -0.076305784 0.04559684 0.2776444 0.13105085
-0.07393891 -0.1037472 0.021900835 0.069805495 -0.27430364 -0.54708964 0.093115 -0.012675702
0.15849501 0.10947036 0.32622704 0.17824878 -0.43156937 -0.118462324 -0.007575627 0.07300537
0.095771454 0.089305446 0.46909156 -0.036485128 0.026732674 0.09733399 0.07185925 -0.05797525
-0.12202408 -0.13734563 -0.013125551 0.186899 -0.08948223 0.07970897 -0.10970522 -0.0023284736
-0.04294369 -0.008874185 0.09544059 -0.15549608 0.36884648 -0.0019156418 -0.10683391 0.09817667
-0.46111947 0.12721728 0.009599036 0.22124808 0.25434196 -0.61084247 -0.050247513 0.11016337
0.6690338 0.083981045 -0.05964125 -0.12710528 -0.005725532 0.10957752 -0.09560967 0.1926409
0.04530311 -0.0068913866 0.08106307 0.015594386 -0.21945085 0.020873995 0.116222836 -0.036056776
0.080508426 0.28566596 0.12507468 0.10076219 -0.14897616 -0.02879523 0.0216125 -0.10117263
0.062320087 0.11489479 0.047690395 -0.016045757 0.053891968 -0.03068291 0.0025269904 0.1381728
0.08530177 0.05488569 -0.010106755 0.080630176 0.06368443 -0.17071475 -0.26280904 0.05978652
0.057618547 -0.12933157 0.041350715 -0.04047394 0.008892072 0.040031012 -0.014836742 -0.031182578
0.033682145 -0.036114592 -0.19944221 -0.18976657 0.017118854 -0.004693122 0.026679007 -0.01600042
-0.07329666 -0.2993955 0.09012683 0.28072497 -0.026777461 0.018798709 -0.14623001 -0.16476105
0.1565109 0.21717493 -0.09726889 0.027243147 -0.11046025 -0.07005489 0.22884119 0.099847876
0.13970117 0.0072578187 -0.033991974 0.067940116 0.06762404 0.017471045 0.025544146 0.21883832
-0.1402054 -0.12899913 0.023295576 -0.09542217 -0.121533126 0.033034917 -0.03008855 0.2698
0.17693281 0.100152925 0.036434796 0.02414004 0.14293733 -0.11794901 0.07175815 -0.11264554
0.20676608 0.4402521 0.0145067675 0.14095049 -0.26979402 -0.208339 0.0065541556 0.041474655
-0.0118252095 -0.13438143 0.07884382 -0.084938526 -0.1187004 -0.04991906 -0.117513575 -0.08514923

linear_2.bias f4 [50]
00000000: a539 d5bd 5169 a3bd 3d94 d4be 3cbf b33c
00000010: 9957 713f 97c3 bbbf c8ec 05c0 1190 de3d
00000020: 23e5 323f 8623 9ebd a695 b4bf 8869 cc3d
00000030: 4245 953d 6df8 df3d 8be1 513f 8930 b6bd
00000040: 2b2f 0b3c 01c0 853d b210 3b3d 2057 62bf
00000050: 6920 6a3f 2373 523f 283e 053e b660 88be
00000060: 8135 f1bd 506d 27bf d614 d9bd 91bb a4bf
00000070: 11bf cb3e cfe9 603e aeba 993f 0a04 b4be
00000080: 1a2b c2bd acbf 823d 6d84 ef3d 7ecb aa3c
00000090: 5957 783f dd83 6ebc 0cc3 32be c290 343f
000000a0: 76be d9bd d3e3 053d 2705 d2bd 950b a43f
000000b0: 1304 54bf 76e7 ecbd ee63 103e 2e1b 9b3c
000000c0: 5651 e8bc 9208 09be
-0.104113854 -0.07979072 -0.41519347 0.021941774 0.9427429 -1.4669064 -2.092577 0.10867322
0.69880885 -0.07721619 -1.4108169 0.09981066 0.072886005 0.10936055 0.81984776 -0.08895976
0.008495132 0.065307625 0.04567022 -0.8841419 0.91455704 0.82206935 0.13011992 -0.26636285
-0.11777783 -0.6540117 -0.10599677 -1.2869741 0.3979421 0.21964191 1.2010095 -0.35159332
-0.09480877 0.06384215 0.1169518 0.020848986 0.9700828 -0.014557806 -0.17457217 0.7053338
-0.10632031 0.032687973 -0.10254889 1.2816035 -0.82818717 -0.11567585 0.1410062 0.018933859
-0.028359096 -0.13382176

linear_out.weight f4 [10, 50]
00000000: 93c9 0ebe bf75 863e 3219 493e b4d1 f3bd
00000010: 9635 b33e cf0c 50be 49a1 e13e 3478 19bf
00000020: c909 5e3e 2b54 8bbe fe49 e43d 2a0f 9cbd
00000030: c6f7 0ebd e28b 2dbd 26c0 bfbd dc83 1ebf
00000040: 5acb 983d 6661 a4bd 815b d5bd a135 103f
00000050: 0763 fcbe 36ec 9abe b8c5 f63d 8c2f 003f
00000060: effa 3fbe 0a5a 87bd ebcc 76bc f5c9 be3e
00000070: d608 a1be 2547 1cbf 6e2d 733e 6546 09bf
00000080: 394b a73c f4b0 0a3e eebd dcbe eec8 203f
00000090: fc18 85bd 7ed4 7cbe 3c02 ca3e e226 61bf
000000a0: 1b19 fdbe 0a4f 16be ec81 c2bc d2b1 73be
000000b0: 4792 d3bc eec8 9d3d ee7a d6bd 9ba6 c2bd
000000c0: bc4d cbbe f933 6a3d 2def e13d 1502 27bd
000000d0: ea53 8c3e 0e13 85be 1673 44be 5343 95bd
000000e0: 60d1 aa3e 3332 1c3f 8653 2bbe 414f c0be
000000f0: a6f9 b43e f897 b1bd b323 0a3e b796 2e3e
00000100: 5fcc f5be 339d d33d ee05 ebbd f94a b1be
00000110: 2cfb f13d 8b6f 6b3e 2b57 9cbe 05d5 123e
00000120: 130b f03c ef95 fd3d fb18 f43d 7399 333e
00000130: 9975 c8bd c5d9 2e3e 9f2b 2b3e 9158 bdbe
00000140: efe1 d13d e0f3 383f 7dd7 a6be ac5d a23e
00000150: f14f 8dbe 875e d5be 562b 00be 0cca b73e
00000160: 2ab8 debd 5a00 ebbe 9f4f 85be a37a 1abe
00000170: be8c 6a3a e8f2 30be e819 273f b6da ac3d
00000180: d3f8 bbbc 1931 7a3d 8bee 1d3d 72fd 75be
00000190: 072c f2bd f3e2 493e 48bd 693b cf2f 8c3c
000001a0: 2842 86be 6f2a 753e d369 5dbd 08d8 653e
000001b0: 1e2c 85be 160b b53e 2722 763e 7098 6d3d
000001c0: 86a0 46bd aa59 9f3e 24d5 d63d c659 08be
000001d0: d862 613c 10f7 cabe e7e8 103c e5aa 763d
000001e0: 7e50 a4bd 85d9 dabe 787c 613c 56c2 7e3e
000001f0: b577 9f3d 73b6 1fbe b1df 73bc 5659 c03e
00000200: 1370 913e b717 0cbe 11fe 0ebe cdff 923e
00000210: a106 81be 1b0f 20be 4799 b0be eebf f5be
00000220: f750 ce3e 17b0 c5bc 7cdd 36be db64 283e
00000230: 3a86 3cbf 2589 a5be 5f42 c23d a187 18bf
00000240: 6b18 e9be 4faf 783d 523f 46bc b1ea e03d
00000250: d6f5 d73e 9b38 353d 1495 d63d 8566 c93d
00000260: 2f48 0abf 546a 07be e6fe 9bbe c6fd dcbe
00000270: a8ba d43e 5c3f b4bc 8a2e 913e 88dc 643e
00000280: 8044 b03e 460e 193e 450b 013e ea7e 54bf
00000290: e0c3 fa3e 82df cebe 7db9 76bd 2319 8a3e
000002a0: 1a16 a7bd 186b b3bd c933 a7be c3ae 883e
000002b0: acc8 6abc 6f8e 65be 51a0 743d 647a bc3d
000002c0: adaf 453d d90f 07bd e076 07be 02f6 68be
000002d0: 073c 523e 6952 c2bd aa47 c43e 0f7a 1ebc
000002e0: 3e95 03bc c370 b33d 81d8 c93e 146b 1abe
000002f0: d31a a93b 8d85 243e 6b15 f73e dbec b83e
00000300: 9bbb b5bc 918d 02bd 342d a8bd 1d51 953c
00000310: f8d0 9abd 93e7 933d 062f debe 639b f43d
00000320: f1e0 a1bd f3ed 17bd 1d1a 9a3e ed18 7a3e
00000330: 46ec 293c ba86 fa3d 0775 f3be 9ee6 58bd
00000340: 2954 7a3e 3459 a8bd 4209 1abf 7116 bbbd
00000350: f76e 02be 38ba e03e 996e 853f 53ab 713c
00000360: 85bb 33bc b8d4 f3be 274d 9abd 7b09 dbbe
00000370: d3aa 5fbd 2894 11be 27c1 963d 1670 4e3d
00000380: 6292 88bd e135 95be f891 1b3d b594 0dbf
00000390: 52e7 883e a4d4 b03d 2921 72be f769 69be
000003a0: fce6 1e3e 1d02 11be c76e 283c fed5 223d
000003b0: fef2 903e 1f8d a83e 54da cdbb eb2f 613d
000003c0: feb3 5abe a3ec df3e c7c3 c93d 9eab 9dbe
000003d0: 2f21 69be 9293 be3d f619 a83c 8882 bcbc
000003e0: 9bdf cd3e 9a05 95bd fdb2 8a3b 3ab9 dfbd
000003f0: 38d7 abbe 36f0 d23d 1ae8 223f 8baa 11bf
-0.13944082 0.26261708 0.19638517 -0.11905232 0.3500182 -0.20317386 0.44068363 -0.5994904
0.2168342 -0.27212653 0.111469254 -0.0762008 -0.034904264 -0.04236973 -0.09362821 -0.6191995
0.07460661 -0.0802639 -0.104178436 0.5633183 -0.49294302 -0.3025834 0.120494306 0.5007255
-0.18748067 -0.066089705 -0.015063505 0.37263456 -0.31452054 -0.6104606 0.23747799 -0.5362304
0.020421611 0.13544065 -0.43113655 0.62806594 -0.06498906 -0.24690434 0.3945483 -0.87949955
-0.49433216 -0.14678589 -0.023743592 -0.23798302 -0.025826586 0.0770434 -0.10472666 -0.09504434
-0.39707744 0.05717847 0.11031947 -0.04077347 0.2740777 -0.259911 -0.19184527 -0.07288232
0.33362865 0.610141 -0.1673108 -0.37560466 0.35346717 -0.08671564 0.1349018 0.1704968
-0.48007485 0.10332718 -0.114757404 -0.34627512 0.11815485 0.22991769 -0.30535254 0.14339073
0.029302156 0.12382113 0.11918827 0.17539005 -0.09788055 0.1707526 0.16715859 -0.36981633
0.102481715 0.72247124 -0.3258628 0.3171209 -0.27600053 -0.4167368 -0.12516531 0.35896337
-0.1087497 -0.45898706 -0.2603731 -0.15085845 0.0008947364 -0.17280161 0.65273905 0.08440153
-0.022945797 0.06108198 0.03855757 -0.24022463 -0.11824804 0.1971548 0.00356658 0.01711264
-0.26222348 0.23941968 -0.054056 0.2244569 -0.2601022 0.3536002 0.24036466 0.058006704
-0.04849293 0.31123096 0.10489872 -0.13315496 0.013756476 -0.3964162 0.008844591 0.06022157
-0.08023165 -0.4274408 0.013762586 0.24878821 0.07786504 -0.15596943 -0.014884875 0.37568158
0.28405818 -0.13680921 -0.13964106 0.28710786 -0.2520037 -0.15630762 -0.3449194 -0.47997993
0.40296146 -0.024131818 -0.17857927 0.16444723 -0.73642313 -0.32331195 0.094853155 -0.59581953
-0.45526442 0.060714062 -0.012100058 0.10982264 0.42179745 0.044243436 0.10477653 0.09834007
-0.54016393 -0.13224155 -0.3046791 -0.43162364 0.41548657 -0.022002868 0.2835582 0.22349751
0.3442726 0.14946851 0.12601955 -0.83006155 0.48977566 -0.40404898 -0.06023549 0.26972303
-0.081585124 -0.08760661 -0.32656696 0.26695833 -0.0143300705 -0.22417615 0.059723202 0.09203032
0.04826324 -0.032974098 -0.13228941 -0.22750095 0.20530711 -0.09488375 0.38335925 -0.009672656
-0.008031188 0.08761742 0.39422992 -0.1507991 0.0051606684 0.1606657 0.48258528 0.36118206
-0.022184184 -0.03187329 -0.08211747 0.018227154 -0.07559389 0.07221904 -0.4339525 0.119437
-0.07904232 -0.03709216 0.30098048 0.24423571 0.010371273 0.12232728 -0.47550222 -0.05295431
0.24446167 -0.08220139 -0.60170376 -0.0913514 -0.12737642 0.43892074 1.0424377 0.0147503195
-0.010970001 -0.4762323 -0.07534247 -0.4278067 -0.05460627 -0.14216673 0.0736106 0.050399862
-0.06668545 -0.2914267 0.037981004 -0.55305034 0.26738983 0.08634308 -0.23645462 -0.22794329
0.15517801 -0.14160962 0.010280318 0.03975486 0.28310388 0.32920167 -0.0062821303 0.05497734
-0.21357724 0.43735227 0.09851795 -0.30794996 -0.22766565 0.093054906 0.020520192 -0.02301146
0.4020966 -0.07276459 0.004232763 -0.10924001 -0.33562636 0.10299723 0.6363541 -0.5690085

linear_out.bias f4 [10]
00000000: 79a3 a8be b669 eabe e958 55be fefe 83bd
00000010: e74e 2f3f 22bc 1540 063b 873e 553e 1ebf
00000020: 6fcb 70bf a945 5dbf
-0.3293722 -0.45783776 -0.20834698 -0.0644512 0.6847977 2.3396077 0.2641222 -0.6181386
-0.94060415 -0.8643442
